sifive_hifive1_MNIST_Approach_3_2_12x12/src/mnist_model_int8.tflite (tflite, 17768 bytes, 3 tensors)

sequential_12/dense_38/MatMul i1 [10, 64] scale=0.015125149 zero_point=0
0.10587604 0.045375448 -0.19662693 -0.1512515 -0.81675804 0.33275327 -0.16637664 -0.22687723
0.060500596 -0.5596305 0.45375445 -1.2402623 0.8318832 0.48400477 0.18150179 -0.030250298
-0.28737783 0.37812874 0.66550654 0.34787843 0.25712752 0.24200238 0.5293802 -0.045375448
-0.81675804 0.4688796 0.34787843 -0.28737783 0.0 -0.302503 -0.605006 -0.43862933
0.49912992 -0.31762812 -0.7865077 -0.19662693 0.13612634 0.045375448 -0.34787843 0.34787843
-0.302503 -0.92263407 -0.8923838 0.16637664 1.512515 -0.18150179 1.0133849 -0.13612634
-0.63525623 -0.015125149 0.030250298 -0.43862933 -1.2553873 0.10587604 0.28737783 0.090750895
0.12100119 -0.16637664 0.43862933 -0.7562575 0.045375448 0.31762812 -0.8923838 -0.07562575
0.07562575 0.48400477 -0.19662693 -0.13612634 -0.605006 0.72600716 -0.34787843 0.030250298
-0.42350417 0.45375445 -0.015125149 -0.090750895 0.36300358 -0.7411323 0.10587604 -0.87725866
0.015125149 0.015125149 0.72600716 0.31762812 -0.27225268 -0.45375445 0.49912992 -0.81675804
0.090750895 0.37812874 -0.5293802 -0.060500596 -0.31762812 -0.07562575 0.090750895 0.5596305
0.37812874 -0.7411323 0.36300358 0.1512515 -0.25712752 0.63525623 0.7411323 0.33275327
-0.31762812 -1.3007628 -0.18150179 -0.28737783 0.69575685 0.37812874 -0.51425505 -0.8621335
0.605006 0.9377592 0.36300358 0.12100119 0.605006 0.43862933 0.72600716 -0.16637664
-1.2553873 0.54450536 -0.9075089 -0.045375448 0.25712752 -0.9528844 -1.2402623 -0.8016329
0.6503814 -0.62013113 -0.710882 -0.28737783 -0.030250298 0.57475567 -0.48400477 0.6503814
-0.21175209 0.5293802 -0.37812874 -0.060500596 -1.3310131 0.030250298 0.1512515 -0.015125149
0.07562575 -0.4688796 -1.1343862 0.045375448 0.10587604 -0.28737783 0.10587604 1.119261
0.39325386 0.9377592 0.34787843 -0.1512515 0.07562575 0.51425505 -0.045375448 -0.49912992
0.45375445 -0.12100119 -0.99825984 0.10587604 -0.36300358 -0.060500596 0.060500596 0.5596305
-0.36300358 0.62013113 -0.4688796 0.24200238 1.0285101 0.22687723 -0.19662693 0.57475567
0.63525623 -0.84700835 0.34787843 -0.030250298 -1.0436352 0.34787843 -0.8923838 -1.7847676
-1.0738856 0.48400477 0.48400477 -1.2856376 -0.6503814 -0.16637664 -0.87725866 0.4688796
-0.10587604 0.0 -0.302503 0.37812874 0.25712752 -1.6788915 -0.45375445 0.07562575
-0.16637664 -1.0890107 0.25712752 0.7562575 -0.72600716 -1.3158879 -0.13612634 -0.1512515
0.21175209 0.42350417 0.12100119 -0.92263407 0.1512515 0.28737783 0.36300358 0.43862933
-0.25712752 -0.18150179 0.07562575 -0.45375445 0.21175209 0.40837902 -0.66550654 0.40837902
-0.34787843 -0.030250298 0.36300358 -0.090750895 0.33275327 -1.0738856 0.5596305 -0.54450536
-0.16637664 0.0 -1.0436352 0.1512515 -0.72600716 0.13612634 -0.54450536 0.605006
-0.34787843 0.5596305 -0.07562575 0.0 0.015125149 0.39325386 -0.28737783 -1.210012
0.030250298 0.1512515 -0.22687723 0.605006 0.7562575 -0.33275327 0.7865077 0.1512515
00000000: 0703 f3f6 ca16 f5f1 04db 1eae 3720 0cfe
00000010: ed19 2c17 1110 23fd ca1f 17ed 00ec d8e3
00000020: 21eb ccf3 0903 e917 ecc3 c50b 64f4 43f7
00000030: d6ff 02e3 ad07 1306 08f5 1dce 0315 c5fb
00000040: 0520 f3f7 d830 e902 e41e fffa 18cf 07c6
00000050: 0101 3015 eee2 21ca 0619 ddfc ebfb 0625
00000060: 19cf 180a ef2a 3116 ebaa f4ed 2e19 dec7
00000070: 283e 1808 281d 30f5 ad24 c4fd 11c1 aecb
00000080: 2bd7 d1ed fe26 e02b f223 e7fc a802 0aff
00000090: 05e1 b503 07ed 074a 1a3e 17f6 0522 fddf
000000a0: 1ef8 be07 e8fc 0425 e829 e110 440f f326
000000b0: 2ac8 17fe bb17 c58a b920 20ab d5f5 c61f
000000c0: f900 ec19 1191 e205 f5b8 1132 d0a9 f7f6
000000d0: 0e1c 08c3 0a13 181d eff4 05e2 0e1b d41b
000000e0: e9fe 18fa 16b9 25dc f500 bb0a d009 dc28
000000f0: e925 fb00 011a edb0 020a f128 32ea 340a

sequential_12/dense_37/MatMul i1 [64, 64] scale=0.010458626 zero_point=0
-0.7321038 0.26146564 -0.115044884 -0.6902693 0.5333899 0.46017954 -0.09412763 0.5333899
0.3137588 0.25100702 0.26146564 -0.09412763 0.1987139 -0.7739383 0.30330014 0.031375878
0.09412763 -0.78439695 0.1987139 0.020917252 -0.020917252 -0.43926227 -0.16733801 -0.8576073
-0.26146564 0.18825527 0.25100702 0.41834503 0.23008977 -0.18825527 0.35559326 0.4810968
0.42880365 0.42880365 0.23008977 0.2823829 -0.010458626 0.5752244 0.041834503 0.3974278
-0.6066003 -0.10458626 0.2405484 0.05229313 -0.33467603 0.14642076 -0.1568794 -0.44972092
0.23008977 -0.29284152 -0.18825527 0.38696915 0.2823829 -0.70072794 -0.21963114 -0.25100702
-0.1568794 0.25100702 0.1568794 -0.08366901 -0.010458626 -0.18825527 0.09412763 0.09412763
0.18825527 -0.3974278 -0.34513465 0.041834503 -0.23008977 0.5333899 -0.12550351 -0.010458626
0.14642076 0.29284152 -0.10458626 0.21963114 -0.031375878 -0.115044884 -0.41834503 -0.5647658
-0.07321038 -0.5229313 -0.07321038 -0.10458626 -0.46017954 0.115044884 0.5438485 -0.12550351
-0.2823829 0.30330014 0.12550351 0.21963114 -0.49155542 0.34513465 0.29284152 0.55430716
-0.07321038 0.05229313 0.35559326 0.41834503 0.4810968 -0.9412763 0.08366901 -0.46017954
-0.6066003 -0.42880365 -0.3137588 -0.37651053 0.18825527 0.10458626 0.13596213 -0.5961417
-0.61705893 -0.1568794 -0.38696915 0.09412763 0.3137588 0.010458626 -0.26146564 -0.07321038
0.010458626 0.1568794 -0.6798107 -0.49155542 0.3137588 0.13596213 -0.16733801 0.18825527
0.50201404 0.062751755 0.33467603 0.10458626 -0.18825527 -0.16733801 -0.26146564 0.1987139
-0.23008977 -0.7948556 -0.37651053 0.38696915 0.46017954 0.46017954 -0.13596213 0.115044884
0.031375878 0.61705893 0.18825527 -0.13596213 0.13596213 0.09412763 -0.3137588 0.3137588
-0.115044884 -0.2405484 -0.9308177 0.10458626 -0.031375878 -0.115044884 0.031375878 -0.05229313
0.27192426 -0.21963114 -0.05229313 0.10458626 0.2823829 0.1987139 -0.2405484 -0.2405484
-0.35559326 -0.05229313 -0.05229313 0.14642076 0.020917252 -0.2405484 -0.49155542 0.5124727
0.27192426 0.1987139 0.14642076 0.08366901 0.3660519 0.18825527 -0.10458626 -0.16733801
-0.30330014 -0.17779663 0.2405484 0.16733801 -0.1987139 -0.1568794 -0.05229313 0.14642076
0.3137588 0.37651053 0.10458626 -0.29284152 0.010458626 -0.27192426 0.87852454 0.0
0.05229313 0.031375878 0.115044884 -0.14642076 0.08366901 0.031375878 -0.25100702 -0.30330014
0.43926227 -0.3974278 -0.38696915 0.05229313 -0.13596213 0.20917252 0.44972092 0.031375878
-0.1568794 -0.38696915 -0.47063816 -0.43926227 -0.55430716 -0.18825527 0.13596213 -0.041834503
0.07321038 0.16733801 -0.2405484 -0.5124727 0.18825527 0.062751755 -0.041834503 0.29284152
0.14642076 -0.43926227 0.08366901 0.12550351 -0.041834503 -0.18825527 0.1568794 0.35559326
0.010458626 0.7216452 0.010458626 -0.30330014 -0.18825527 -0.13596213 -0.8053142 0.3660519
0.37651053 -0.16733801 -0.010458626 0.18825527 0.18825527 0.2823829 -0.6484348 0.34513465
00000000: ba19 f5be 332c f733 1e18 19f7 13b6 1d03
00000010: 09b5 1302 fed6 f0ae e712 1828 16ee 222e
00000020: 2929 161b ff37 0426 c6f6 1705 e00e f1d5
00000030: 16e4 ee25 1bbd ebe8 f118 0ff8 ffee 0909
00000040: 12da df04 ea33 f4ff 0e1c f615 fdf5 d8ca
00000050: f9ce f9f6 d40b 34f4 e51d 0c15 d121 1c35
00000060: f905 2228 2ea6 08d4 c6d7 e2dc 120a 0dc7
00000070: c5f1 db09 1e01 e7f9 010f bfd1 1e0d f012
00000080: 3006 200a eef0 e713 eab4 dc25 2c2c f30b
00000090: 033b 12f3 0d09 e21e f5e9 a70a fdf5 03fb
000000a0: 1aeb fb0a 1b13 e9e9 defb fb0e 02e9 d131
000000b0: 1a13 0e08 2312 f6f0 e3ef 1710 edf1 fb0e
000000c0: 1e24 0ae4 01e6 5400 0503 0bf2 0803 e8e3
000000d0: 2ada db05 f314 2b03 f1db d3d6 cbee 0dfc
000000e0: 0710 e9cf 1206 fc1c 0ed6 080c fcee 0f22
000000f0: 0145 01e3 eef3 b323 24f0 ff12 121b c221

sequential_12/dense_36/MatMul i1 [64, 144] scale=0.012595066 zero_point=0
0.0377852 -0.1511408 0.025190132 -0.012595066 0.10076053 -0.1511408 -0.3274717 -0.17633092
-0.0377852 -0.17633092 -0.13854572 0.11335559 -0.08816546 -0.35266185 -0.050380263 0.050380263
-0.050380263 0.06297533 0.2644964 0.0755704 -0.3022816 -0.0755704 -0.050380263 0.50380266
0.11335559 -0.17633092 -0.25190133 -0.25190133 0.0755704 -0.13854572 0.012595066 -0.0377852
-0.050380263 0.25190133 -0.0755704 0.20152105 0.21411613 0.46601743 0.050380263 -0.0377852
0.13854572 -0.3274717 0.42823225 0.21411613 0.0 -0.025190132 0.41563717 0.3652569
0.012595066 -0.08816546 0.0 0.22671118 -0.012595066 -0.25190133 -0.0755704 -0.050380263
0.12595066 0.31487665 0.16373585 -0.06297533 -0.12595066 -0.46601743 -0.35266185 0.18892598
0.08816546 0.11335559 0.0 0.23930626 -0.1511408 0.0755704 0.16373585 0.12595066
0.13854572 -0.20152105 0.31487665 -0.012595066 -0.21411613 0.12595066 0.06297533 0.0
-0.08816546 -0.11335559 -0.12595066 -0.37785196 0.10076053 0.12595066 -0.06297533 0.12595066
0.08816546 0.20152105 0.22671118 0.23930626 -0.2644964 -0.17633092 -0.8564645 -0.45342237
-0.0755704 0.1511408 -0.21411613 -0.050380263 0.16373585 0.012595066 0.2896865 -0.0755704
-0.5289928 -0.2644964 -0.94462997 -0.5163977 -0.050380263 -0.18892598 -0.050380263 -0.12595066
0.06297533 0.3652569 0.3274717 -0.050380263 -0.3400668 -1.0453905 -0.8060842 0.0
-0.11335559 0.20152105 -0.012595066 0.16373585 0.11335559 0.23930626 0.17633092 -0.31487665
-1.2091264 -1.1083658 0.18892598 0.16373585 -0.11335559 -0.3022816 0.37785196 0.21411613
0.3022816 0.45342237 0.050380263 -1.1839362 -1.1083658 0.025190132 -0.2644964 -0.11335559
-0.1511408 -0.0755704 0.0377852 0.0755704 0.17633092 -0.012595066 0.18892598 -0.4030421
0.06297533 0.012595066 0.0 -0.16373585 -0.21411613 -0.45342237 -0.025190132 -0.22671118
-0.3274717 -0.39044705 0.0755704 -0.2896865 -0.3652569 -0.20152105 0.0755704 0.3400668
-0.25190133 0.50380266 -0.0377852 -0.050380263 0.11335559 -0.050380263 -0.22671118 -0.39044705
-0.20152105 -0.025190132 0.22671118 -0.18892598 0.0755704 0.13854572 0.1511408 -0.2644964
0.35266185 0.31487665 -0.06297533 -0.1511408 0.27709144 0.3652569 0.46601743 -0.06297533
-0.0377852 -0.42823225 0.37785196 -0.18892598 -0.4030421 -0.579373 -0.4030421 0.0755704
0.17633092 0.3022816 0.22671118 0.3400668 0.1511408 0.17633092 0.18892598 0.025190132
-0.13854572 -0.012595066 -0.10076053 0.0755704 -0.22671118 -0.22671118 -0.050380263 0.31487665
0.11335559 0.2896865 -0.1511408 -0.5289928 -0.2644964 -0.11335559 0.0755704 -0.42823225
0.025190132 0.12595066 -0.08816546 -0.17633092 -0.025190132 -0.0377852 -0.3400668 0.12595066
0.11335559 0.0 0.13854572 0.012595066 -0.0377852 -0.08816546 -0.20152105 -0.0755704
0.1511408 -0.10076053 -0.2896865 0.1511408 0.20152105 0.11335559 -0.0377852 -0.08816546
0.3022816 0.41563717 -0.5163977 0.39044705 0.16373585 0.18892598 0.20152105 0.3652569
00000000: 03f4 02ff 08f4 e6f2 fdf2 f509 f9e4 fc04
00000010: fc05 1506 e8fa fc28 09f2 ecec 06f5 01fd
00000020: fc14 fa10 1125 04fd 0be6 2211 00fe 211d
00000030: 01f9 0012 ffec fafc 0a19 0dfb f6db e40f
00000040: 0709 0013 f406 0d0a 0bf0 19ff ef0a 0500
00000050: f9f7 f6e2 080a fb0a 0710 1213 ebf2 bcdc
00000060: fa0c effc 0d01 17fa d6eb b5d7 fcf1 fcf6
00000070: 051d 1afc e5ad c000 f710 ff0d 0913 0ee7
00000080: a0a8 0f0d f7e8 1e11 1824 04a2 a802 ebf7
00000090: f4fa 0306 0eff 0fe0 0501 00f3 efdc feee
000000a0: e6e1 06e9 e3f0 061b ec28 fdfc 09fc eee1
000000b0: f0fe 12f1 060b 0ceb 1c19 fbf4 161d 25fb
000000c0: fdde 1ef1 e0d2 e006 0e18 121b 0c0e 0f02
000000d0: f5ff f806 eeee fc19 0917 f4d6 ebf7 06de
000000e0: 020a f9f2 fefd e50a 0900 0b01 fdf9 f0fa
000000f0: 0cf8 e90c 1009 fdf9 1821 d71f 0d0f 101d
